----------------------------------------------------------------
        Layer (type)               Output Shape         Param #
================================================================
            Conv2d-1           [-1, 16, 32, 32]             432
       BatchNorm2d-2           [-1, 16, 32, 32]              32
             ReLU6-3           [-1, 16, 32, 32]               0
         h_sigmoid-4           [-1, 16, 32, 32]               0
           h_swish-5           [-1, 16, 32, 32]               0
  BinaryActivation-6           [-1, 16, 32, 32]               0
    HardBinaryConv-7           [-1, 16, 32, 32]               0
       BatchNorm2d-8           [-1, 16, 32, 32]              32
 AdaptiveAvgPool2d-9             [-1, 16, 1, 1]               0
           Linear-10                    [-1, 8]             136
             ReLU-11                    [-1, 8]               0
           Linear-12                   [-1, 16]             144
            ReLU6-13                   [-1, 16]               0
        h_sigmoid-14                   [-1, 16]               0
          SELayer-15           [-1, 16, 32, 32]               0
 BinaryActivation-16           [-1, 16, 32, 32]               0
   HardBinaryConv-17           [-1, 16, 32, 32]               0
      BatchNorm2d-18           [-1, 16, 32, 32]              32
InvertedResidual_b-19           [-1, 16, 32, 32]               0
 BinaryActivation-20           [-1, 16, 32, 32]               0
   HardBinaryConv-21           [-1, 72, 32, 32]               0
      BatchNorm2d-22           [-1, 72, 32, 32]             144
 BinaryActivation-23           [-1, 72, 32, 32]               0
   HardBinaryConv-24           [-1, 72, 32, 32]               0
      BatchNorm2d-25           [-1, 72, 32, 32]             144
         Identity-26           [-1, 72, 32, 32]               0
 BinaryActivation-27           [-1, 72, 32, 32]               0
   HardBinaryConv-28           [-1, 24, 32, 32]               0
      BatchNorm2d-29           [-1, 24, 32, 32]              48
InvertedResidual_b-30           [-1, 24, 32, 32]               0
 BinaryActivation-31           [-1, 24, 32, 32]               0
   HardBinaryConv-32           [-1, 88, 32, 32]               0
      BatchNorm2d-33           [-1, 88, 32, 32]             176
 BinaryActivation-34           [-1, 88, 32, 32]               0
   HardBinaryConv-35           [-1, 88, 32, 32]               0
      BatchNorm2d-36           [-1, 88, 32, 32]             176
         Identity-37           [-1, 88, 32, 32]               0
 BinaryActivation-38           [-1, 88, 32, 32]               0
   HardBinaryConv-39           [-1, 24, 32, 32]               0
      BatchNorm2d-40           [-1, 24, 32, 32]              48
InvertedResidual_b-41           [-1, 24, 32, 32]               0
 BinaryActivation-42           [-1, 24, 32, 32]               0
   HardBinaryConv-43           [-1, 96, 32, 32]               0
      BatchNorm2d-44           [-1, 96, 32, 32]             192
 BinaryActivation-45           [-1, 96, 32, 32]               0
   HardBinaryConv-46           [-1, 96, 32, 32]               0
      BatchNorm2d-47           [-1, 96, 32, 32]             192
AdaptiveAvgPool2d-48             [-1, 96, 1, 1]               0
           Linear-49                   [-1, 24]           2,328
             ReLU-50                   [-1, 24]               0
           Linear-51                   [-1, 96]           2,400
            ReLU6-52                   [-1, 96]               0
        h_sigmoid-53                   [-1, 96]               0
          SELayer-54           [-1, 96, 32, 32]               0
 BinaryActivation-55           [-1, 96, 32, 32]               0
   HardBinaryConv-56           [-1, 40, 32, 32]               0
      BatchNorm2d-57           [-1, 40, 32, 32]              80
InvertedResidual_b-58           [-1, 40, 32, 32]               0
 BinaryActivation-59           [-1, 40, 32, 32]               0
   HardBinaryConv-60          [-1, 240, 32, 32]               0
      BatchNorm2d-61          [-1, 240, 32, 32]             480
 BinaryActivation-62          [-1, 240, 32, 32]               0
   HardBinaryConv-63          [-1, 240, 32, 32]               0
      BatchNorm2d-64          [-1, 240, 32, 32]             480
AdaptiveAvgPool2d-65            [-1, 240, 1, 1]               0
           Linear-66                   [-1, 64]          15,424
             ReLU-67                   [-1, 64]               0
           Linear-68                  [-1, 240]          15,600
            ReLU6-69                  [-1, 240]               0
        h_sigmoid-70                  [-1, 240]               0
          SELayer-71          [-1, 240, 32, 32]               0
 BinaryActivation-72          [-1, 240, 32, 32]               0
   HardBinaryConv-73           [-1, 40, 32, 32]               0
      BatchNorm2d-74           [-1, 40, 32, 32]              80
InvertedResidual_b-75           [-1, 40, 32, 32]               0
 BinaryActivation-76           [-1, 40, 32, 32]               0
   HardBinaryConv-77          [-1, 240, 32, 32]               0
      BatchNorm2d-78          [-1, 240, 32, 32]             480
 BinaryActivation-79          [-1, 240, 32, 32]               0
   HardBinaryConv-80          [-1, 240, 32, 32]               0
      BatchNorm2d-81          [-1, 240, 32, 32]             480
AdaptiveAvgPool2d-82            [-1, 240, 1, 1]               0
           Linear-83                   [-1, 64]          15,424
             ReLU-84                   [-1, 64]               0
           Linear-85                  [-1, 240]          15,600
            ReLU6-86                  [-1, 240]               0
        h_sigmoid-87                  [-1, 240]               0
          SELayer-88          [-1, 240, 32, 32]               0
 BinaryActivation-89          [-1, 240, 32, 32]               0
   HardBinaryConv-90           [-1, 40, 32, 32]               0
      BatchNorm2d-91           [-1, 40, 32, 32]              80
InvertedResidual_b-92           [-1, 40, 32, 32]               0
 BinaryActivation-93           [-1, 40, 32, 32]               0
   HardBinaryConv-94          [-1, 120, 32, 32]               0
      BatchNorm2d-95          [-1, 120, 32, 32]             240
 BinaryActivation-96          [-1, 120, 32, 32]               0
   HardBinaryConv-97          [-1, 120, 32, 32]               0
      BatchNorm2d-98          [-1, 120, 32, 32]             240
AdaptiveAvgPool2d-99            [-1, 120, 1, 1]               0
          Linear-100                   [-1, 32]           3,872
            ReLU-101                   [-1, 32]               0
          Linear-102                  [-1, 120]           3,960
           ReLU6-103                  [-1, 120]               0
       h_sigmoid-104                  [-1, 120]               0
         SELayer-105          [-1, 120, 32, 32]               0
BinaryActivation-106          [-1, 120, 32, 32]               0
  HardBinaryConv-107           [-1, 48, 32, 32]               0
     BatchNorm2d-108           [-1, 48, 32, 32]              96
InvertedResidual_b-109           [-1, 48, 32, 32]               0
BinaryActivation-110           [-1, 48, 32, 32]               0
  HardBinaryConv-111          [-1, 144, 32, 32]               0
     BatchNorm2d-112          [-1, 144, 32, 32]             288
BinaryActivation-113          [-1, 144, 32, 32]               0
  HardBinaryConv-114          [-1, 144, 32, 32]               0
     BatchNorm2d-115          [-1, 144, 32, 32]             288
AdaptiveAvgPool2d-116            [-1, 144, 1, 1]               0
          Linear-117                   [-1, 40]           5,800
            ReLU-118                   [-1, 40]               0
          Linear-119                  [-1, 144]           5,904
           ReLU6-120                  [-1, 144]               0
       h_sigmoid-121                  [-1, 144]               0
         SELayer-122          [-1, 144, 32, 32]               0
BinaryActivation-123          [-1, 144, 32, 32]               0
  HardBinaryConv-124           [-1, 48, 32, 32]               0
     BatchNorm2d-125           [-1, 48, 32, 32]              96
InvertedResidual_b-126           [-1, 48, 32, 32]               0
BinaryActivation-127           [-1, 48, 32, 32]               0
  HardBinaryConv-128          [-1, 288, 32, 32]               0
     BatchNorm2d-129          [-1, 288, 32, 32]             576
BinaryActivation-130          [-1, 288, 32, 32]               0
  HardBinaryConv-131          [-1, 288, 32, 32]               0
     BatchNorm2d-132          [-1, 288, 32, 32]             576
AdaptiveAvgPool2d-133            [-1, 288, 1, 1]               0
          Linear-134                   [-1, 72]          20,808
            ReLU-135                   [-1, 72]               0
          Linear-136                  [-1, 288]          21,024
           ReLU6-137                  [-1, 288]               0
       h_sigmoid-138                  [-1, 288]               0
         SELayer-139          [-1, 288, 32, 32]               0
BinaryActivation-140          [-1, 288, 32, 32]               0
  HardBinaryConv-141           [-1, 96, 32, 32]               0
     BatchNorm2d-142           [-1, 96, 32, 32]             192
InvertedResidual_b-143           [-1, 96, 32, 32]               0
BinaryActivation-144           [-1, 96, 32, 32]               0
  HardBinaryConv-145          [-1, 576, 32, 32]               0
     BatchNorm2d-146          [-1, 576, 32, 32]           1,152
BinaryActivation-147          [-1, 576, 32, 32]               0
  HardBinaryConv-148          [-1, 576, 32, 32]               0
     BatchNorm2d-149          [-1, 576, 32, 32]           1,152
AdaptiveAvgPool2d-150            [-1, 576, 1, 1]               0
          Linear-151                  [-1, 144]          83,088
            ReLU-152                  [-1, 144]               0
          Linear-153                  [-1, 576]          83,520
           ReLU6-154                  [-1, 576]               0
       h_sigmoid-155                  [-1, 576]               0
         SELayer-156          [-1, 576, 32, 32]               0
BinaryActivation-157          [-1, 576, 32, 32]               0
  HardBinaryConv-158           [-1, 96, 32, 32]               0
     BatchNorm2d-159           [-1, 96, 32, 32]             192
InvertedResidual_b-160           [-1, 96, 32, 32]               0
BinaryActivation-161           [-1, 96, 32, 32]               0
  HardBinaryConv-162          [-1, 576, 32, 32]               0
     BatchNorm2d-163          [-1, 576, 32, 32]           1,152
BinaryActivation-164          [-1, 576, 32, 32]               0
  HardBinaryConv-165          [-1, 576, 32, 32]               0
     BatchNorm2d-166          [-1, 576, 32, 32]           1,152
AdaptiveAvgPool2d-167            [-1, 576, 1, 1]               0
          Linear-168                  [-1, 144]          83,088
            ReLU-169                  [-1, 144]               0
          Linear-170                  [-1, 576]          83,520
           ReLU6-171                  [-1, 576]               0
       h_sigmoid-172                  [-1, 576]               0
         SELayer-173          [-1, 576, 32, 32]               0
BinaryActivation-174          [-1, 576, 32, 32]               0
  HardBinaryConv-175           [-1, 96, 32, 32]               0
     BatchNorm2d-176           [-1, 96, 32, 32]             192
InvertedResidual_b-177           [-1, 96, 32, 32]               0
          Conv2d-178          [-1, 576, 32, 32]          55,296
     BatchNorm2d-179          [-1, 576, 32, 32]           1,152
           ReLU6-180          [-1, 576, 32, 32]               0
       h_sigmoid-181          [-1, 576, 32, 32]               0
         h_swish-182          [-1, 576, 32, 32]               0
AdaptiveAvgPool2d-183            [-1, 576, 1, 1]               0
          Linear-184                 [-1, 1024]         590,848
           ReLU6-185                 [-1, 1024]               0
       h_sigmoid-186                 [-1, 1024]               0
         h_swish-187                 [-1, 1024]               0
         Dropout-188                 [-1, 1024]               0
          Linear-189                 [-1, 1000]       1,025,000
================================================================
Total params: 2,145,328
Trainable params: 2,145,328
Non-trainable params: 0
----------------------------------------------------------------
Input size (MB): 0.01
Forward/backward pass size (MB): 174.32
Params size (MB): 8.18
Estimated Total Size (MB): 182.51
----------------------------------------------------------------
Files already downloaded and verified
…
